Samples~/Push The Block/NNModels/PushBlock.onnx (onnx, 328861 bytes, 9 tensors)

action_model._discrete_distribution.branches.0.bias f4 [3]
-0.047822874 -0.023565145 0.08736513
00000000: ebe1 43bd b10b c1bc 7dec b23d

action_model._discrete_distribution.branches.0.weight f4 [3, 256]
-0.07927459 -0.14027907 -0.04270575 -0.0915086 -0.039852493 0.015407821 -0.13494398 0.07486025
0.060757264 0.09031644 -0.0683662 0.037341233 0.058465008 -0.13723831 -0.006012842 0.031361032
0.00055556215 -0.05471474 -0.012265679 -0.009522715 -0.08163352 -0.10673209 -0.07277532 0.07078288
-0.05448959 -0.05340142 0.0747697 -0.032075975 0.101958714 -0.10064622 0.06029512 -0.047658194
-0.01737727 0.09477885 0.04260776 0.056511 -0.013033978 -0.07948029 -0.0768645 0.04682009
-0.08096614 -0.06270264 -0.102535926 0.10232532 0.0154519575 -0.007132277 0.053403247 0.0017418187
0.06188485 -0.026180059 0.021524237 -0.0442135 -0.0491314 0.0077998177 -0.070002824 0.07429101
0.08041557 -0.022631573 -0.1217198 0.040091917 -0.06397142 -0.10389956 0.092426956 -0.051854823
0.093739726 -0.0018364599 0.11379894 0.09803428 0.14173688 -0.09709445 -0.010181686 0.07032322
-0.05081026 -0.08390253 -0.022503473 0.050910663 0.082628265 0.05778793 0.044725865 -0.12435066
0.05221236 -0.028735789 -0.062905155 -0.05566352 -0.014983504 -0.010679957 0.01495442 0.041293867
-0.039167177 -8.342984e-05 0.100882165 0.024123542 -0.04726004 -0.11755937 -0.03266462 -0.03056037
0.11289157 0.07224347 0.1076083 -0.06818628 0.048845425 -0.025165176 -0.015997646 0.056508943
-0.025577612 0.050283264 0.05007636 0.08609203 -0.05000694 0.05330444 -0.051452015 0.026570892
0.119484246 0.091228746 -0.1130709 0.042681843 0.05761053 0.062944636 -0.06825337 -0.058694337
-0.10177606 0.04497654 0.09468325 -0.092640676 0.038193446 -0.043705933 -0.039056137 -0.033900578
-0.0074967337 -0.059780784 0.11411801 0.057067208 -0.03499994 0.08768787 0.0076258085 0.06624299
-0.061284553 -0.06492953 0.011581153 -0.00089105166 0.043037016 -0.056878675 -0.03846437 -0.023761038
0.009836947 0.046425257 0.0018375802 0.12473192 -0.03640692 0.051744815 0.014739799 0.0012604923
0.071119 -0.045568522 -0.08947018 0.047694627 0.12840411 0.04972714 -0.0784951 -0.048246
0.100042 0.10554971 -0.06691159 -0.007290329 0.073183164 0.07188302 0.025317451 -0.06167135
0.15213245 -0.054059856 -0.082485326 -0.049082737 0.07267173 0.049177203 0.115993135 -0.119421855
-0.043388326 -0.113790676 0.032344017 0.06196697 -0.10221037 0.036677763 -0.081180036 0.0578742
0.11268423 -0.10027717 -0.10171148 -0.049605362 -0.05511794 0.054709546 -0.0013450738 -0.09982116
-0.079665616 -0.0026455019 0.034544077 -0.023156451 0.10871395 0.11173845 -0.047227163 -0.018798435
-0.018541336 -0.03286155 0.00025616318 0.071062416 -0.07064827 -0.07840319 -0.07863636 -0.009915315
-0.07040586 0.026934875 0.0484745 0.012456372 -0.08970803 -0.01769688 -0.077991165 -0.020066643
-0.04893695 0.058204852 -0.049242854 -0.092588305 -0.050381597 -0.068236895 -0.06694609 0.094212115
0.10837104 -0.032854438 -0.0069197197 0.055866696 -0.11519834 0.055002492 -0.06996183 -0.0005565852
0.07421222 -0.078321844 -0.012108339 -0.007929938 -0.05906142 -0.04742392 -0.05988283 -0.033651054
-0.12754825 -0.108919665 0.083741516 -0.09707841 -0.059398506 0.13953274 -0.05931012 -0.02762365
0.1270859 -0.007723388 -0.015931454 0.087778024 0.13644633 0.13571857 0.06808829 -0.0191395
00000000: b75a a2bd 51a5 0fbe 39ec 2ebd dc68 bbbd
00000010: 5e3c 23bd 1671 7c3c c12e 0abe 5550 993d
00000020: 9cdc 783d d3f7 b83d 9403 8cbd 1ff3 183d
00000030: 0179 6f3d 3388 0cbe 6007 c5bb 6d74 003d
00000040: 25a3 113a 901c 60bd fdf5 48bc 2905 1cbc
00000050: 7a2f a7bd 5b96 dabd 3a0b 95bd 9df6 903d
00000060: 7a30 5fbd 73bb 5abd db20 993d 1962 03bd
00000070: bbcf d03d 9b1f cebd 04f8 763d 3d35 43bd
00000080: c75a 8ebc 6a1b c23d 7985 2e3d 1478 673d
00000090: 778c 55bc 90c6 a2bd 236b 9dbd 6cc6 3f3d
000000a0: 93d1 a5bd 3e6a 80bd 5bfe d1bd f08f d13d
000000b0: 352a 7d3c e0b5 e9bb 5dbd 5a3d bd4d e43a
000000c0: f87a 7d3d 9077 d6bc 9953 b03c 3719 35bd
000000d0: 023e 49bd 9d95 ff3b a45d 8fbd e325 983d
000000e0: ebb0 a43d d965 b9bc 3b48 f9bd 6c37 243d
000000f0: 7303 83bd 4bc9 d4bd 584a bd3d b965 54bd
00000100: 9dfa bf3d 5eb5 f0ba 6b0f e93d 32c6 c83d
00000110: 7923 113e 74d9 c6bd 16d1 26bc 9f05 903d
00000120: 6b1e 50bd 17d5 abbd 3459 b8bc b387 503d
00000130: 0239 a93d 09b3 6c3d 7832 373d 8fab febd
00000140: a1dc 553d 5167 ebbc 6bd4 80bd 6eff 63bd
00000150: 5f7d 75bc fdfa 2ebc 6203 753c c223 293d
00000160: c36d 20bd 0ef7 aeb8 4f9b ce3d bc9e c53c
00000170: be93 41bd f8c2 f0bd 56cb 05bd be59 fabc
00000180: b233 e73d 62f4 933d be61 dc3d 40a5 8bbd
00000190: 2412 483d 3327 cebc 7f0d 83bc ec75 673d
000001a0: 2488 d1bc d3f5 4d3d df1c 4d3d 0551 b03d
000001b0: 14d4 4cbd c255 5a3d 59bf 52bd 33ab d93c
000001c0: 28b4 f43d 23d6 ba3d b791 e7bd 28d3 2e3d
000001d0: 05f9 6b3d 1ee9 803d 6cc8 8bbd 7969 70bd
000001e0: f86f d0bd 5239 383d 4be9 c13d 65ba bdbd
000001f0: bb70 1c3d fe04 33bd 54f9 1fbd 55db 0abd
00000200: 29a7 f5bb b2dc 74bd b4b6 e93d 4ebf 693d
00000210: 195c 0fbd b395 b33d ebe1 f93b 68aa 873d
00000220: 8305 7bbd c6f9 84bd e0be 3d3c 7795 69ba
00000230: 9547 303d 9df9 68bd d18c 1dbd 82a6 c2bc
00000240: 252b 213c 6928 3e3d f6da f03a 7373 ff3d
00000250: 6c1f 15bd 5ff2 533d 337f 713c 1a37 a53a
00000260: d7a6 913d 0fa6 3abd 243c b7bd 715b 433d
00000270: 5e7c 033e b0ae 4b3d 0ac2 a0bd 999d 45bd
00000280: d2e2 cc3d 722a d83d f208 89bd b6e3 eebb
00000290: 0ee1 953d 6837 933d 8b66 cf3c 199b 7cbd
000002a0: 9cc8 1b3e de6d 5dbd 11ee a8bd fb0a 49bd
000002b0: ead4 943d 096e 493d cf8d ed3d 7293 f4bd
000002c0: f5b7 31bd 160b e9bd 297b 043d 14d1 7d3d
000002d0: ac53 d1bd 6c3b 163d b841 a6bd 7f0d 6d3d
000002e0: fdc6 e63d 1e5e cdbd 1c4e d0bd fe2e 4bbd
000002f0: 59c3 61bd 1e17 603d 304d b0ba 096f ccbd
00000300: ba27 a3bd 2860 2dbb 177e 0d3d 99b2 bdbc
00000310: 6ba5 de3d 21d7 e43d 4571 41bd 2dff 99bc
00000320: 00e4 97bc d599 06bd a44d 8639 2c89 913d
00000330: 0ab0 90bd da91 a0bd 1a0c a1bd d873 22bc
00000340: f330 90bd 87a6 dc3c 338d 463d d015 4c3c
00000350: d8b8 b7bd 0cf9 90bc d5b9 9fbd cd62 a4bc
00000360: 1c72 48bd 3668 6e3d e0b2 49bd f09e bdbd
00000370: ef5c 4ebd c9bf 8bbd 081b 89bd 48f2 c03d
00000380: a3f1 dd3d 6092 06bd d1be e2bb 7ad4 643d
00000390: 1bed ebbd 4b4a 613d 2648 8fbd cde7 11ba
000003a0: 94fc 973d 3467 a0bd 0e62 46bc 92ec 01bc
000003b0: 63ea 71bd 963f 42bd b347 75bd b0d5 09bd
000003c0: 029c 02be 4611 dfbd ac80 ab3d 0cd1 c6bd
000003d0: d94b 73bd ace1 0e3e 2bef 72bd fe4a e2bc
000003e0: ce22 023e 7914 fdbb ae82 82bc f7c4 b33d
000003f0: 96b8 0b3e cff9 0a3e e071 8b3d 71ca 9cbc

action_model._discrete_distribution.branches.1.bias f4 [3]
-0.016070247 -0.032941442 0.048312053
00000000: c0a5 83bc 9bed 06bd dce2 453d

action_model._discrete_distribution.branches.1.weight f4 [3, 256]
-0.07822437 -0.123439595 0.009714954 -0.10272463 -0.20748556 0.07860012 -0.069869086 0.088329345
0.12421168 0.026392842 -0.17612584 -0.10143205 0.22964749 -0.014886737 -0.041750316 0.133575
-0.20980032 0.08063047 0.07425111 0.0034272575 0.0350077 -0.09555304 -0.120673984 0.0026932945
-0.016429836 -0.15608896 -0.08532522 -0.01279366 0.04979488 -0.11568485 8.904919e-05 0.06909511
0.055784237 0.08833135 0.0048235985 -0.0113405725 -0.09505919 -0.15251827 -0.0072655436 0.10473555
0.19040558 -0.11216949 -0.06932726 -0.08079503 0.040158127 -0.016025785 0.0824029 0.095485605
0.17914551 0.082593486 0.19127618 -0.1845454 0.08821372 0.12232083 -0.15559423 -0.051028177
0.1904358 0.069719344 -0.055148818 0.053092495 0.0032083893 -0.055202134 0.033439044 0.08003651
0.089146174 -0.16143748 -0.028787402 0.035014443 0.0040069977 0.015360039 0.09122026 0.19986057
0.08154373 -0.013792763 -0.19828826 -0.044904683 0.009245621 0.16816388 0.167991 -0.016157413
0.16517682 0.053066652 -0.0054691955 -0.15158999 -0.012969732 0.0731575 0.2076913 0.22748156
-0.073586024 -0.00064460974 -0.0010052287 0.07775445 0.1212433 -0.10310579 0.0524152 0.058949772
0.050205555 0.07852763 -0.066837326 -0.07556397 0.11339659 -0.19821282 -0.016683225 0.08312376
0.0700246 0.016421255 0.11940917 0.15379262 -0.025334414 0.19654064 0.05147474 -0.09811693
-0.008657802 -0.10747221 -0.03483302 0.24572594 0.24222289 -0.022363503 -0.13740928 0.039494954
-0.03378928 -0.050160933 0.11725481 -0.015727768 0.1534557 0.06423724 -0.014488829 -0.016799388
-0.24225593 -0.06447375 -0.045325108 0.1909783 0.05292959 0.03309368 0.072104074 0.24242386
0.035473887 0.0479528 0.062621735 0.082278825 0.036665536 -0.13873917 0.054928914 0.07334602
0.021573946 0.036523588 0.0018743792 -0.06943478 0.03363852 0.1729578 0.21935694 0.1578619
0.10594507 0.03476909 -0.019681048 -0.09412879 -0.10854143 0.113675706 0.012941557 -0.10898975
-0.02404826 -0.12041667 -0.08881042 0.10748832 0.18888025 0.066767484 0.025090503 0.051167972
0.03405149 -0.063201204 -0.119074695 -0.23095332 -0.10204136 0.09544317 -0.04278341 -0.009171426
-0.0049687685 -0.10022767 7.7184406e-05 0.03833974 -0.089389876 -0.047849197 0.003402989 0.22059587
0.06245974 -0.13498908 -0.0029502981 0.10169213 -0.1282454 0.19644032 0.12377608 -0.11593612
0.06473101 -0.22562638 0.036152314 0.0906385 -0.006260452 0.039472505 -0.07059924 0.05381413
0.080721855 -0.18654346 0.10336328 0.11696445 -0.17458995 -0.024952129 -0.20365216 -0.0073004304
-0.022072067 0.07725985 0.13797835 0.028231813 -0.14775296 0.042202674 -0.08309636 0.13065426
0.07221014 -0.03989986 0.08176487 -0.0393262 -0.013400346 -0.0049755457 -0.044825524 -0.1348509
-0.04198889 0.01641604 -0.046535417 0.10993433 -0.0068883174 -0.051452603 -0.13818707 0.29400638
0.08199108 -0.068923034 0.06328754 0.09565639 0.0037043344 0.054223027 -0.16693974 -0.11617354
-0.04946196 0.0094283195 -0.011302635 -0.15714724 -0.19012506 -0.039285284 -0.018142838 -0.22232404
0.056256745 -0.11922345 0.05218721 0.074711494 0.0048665437 0.0014469891 0.013690284 -0.13589153
00000000: 1934 a0bd e6cd fcbd 782b 1f3c 4a61 d2bd
00000010: 1877 54be 1af9 a03d 8617 8fbd 04e6 b43d
00000020: b162 fe3d cd35 d83c 555a 34be 9bbb cfbd
00000030: b628 6b3e 80e7 73bc 6102 2bbd e3c7 083e
00000040: e5d5 56be 9621 a53d f710 983d d79b 603b
00000050: 3c64 0f3d 50b1 c3bd ec23 f7bd fc81 303b
00000060: dd97 86bc c9d5 1fbe fdbe aebd 809c 51bc
00000070: b7f5 4b3d 2eec ecbd ebbf ba38 bd81 8d3d
00000080: 037e 643d 11e7 b43d 470f 9e3b cfcd 39bc
00000090: 65ae c2bd c02d 1cbe cc13 eebb 987f d63d
000000a0: aef9 423e 1eb9 e5bd 73fb 8dbd dd77 a5bd
000000b0: d97c 243d 8248 83bc dac2 a83d f58d c33d
000000c0: ec71 373e c626 a93d e7dd 433e 78f9 3cbe
000000d0: 65a9 b43d 5883 fa3d 1854 1fbe ec02 51bd
000000e0: 9a01 433e 04c9 8e3d bae3 61bd 8477 593d
000000f0: d743 523b a21b 62bd 61f7 083d 2fea a33d
00000100: 4592 b63d de4f 25be 8fd3 ebbc 4e6b 0f3d
00000110: 224d 833b aca8 7b3c b0d1 ba3d 40a8 4c3e
00000120: 6600 a73d 0bfb 61bc 140c 4bbe f9ed 37bd
00000130: f27a 173c 2733 2c3e d505 2c3e 8d5c 84bc
00000140: 1d24 293e 6b5c 593d f036 b3bb 683a 1bbe
00000150: 007f 54bc 99d3 953d 07ad 543e edf0 683e
00000160: 45b4 96bd 07fb 28ba e1c1 83ba ba3d 9f3d
00000170: 684e f83d 2129 d3bd 52b1 563d 5175 713d
00000180: 57a4 4d3d 18d3 a03d 02e2 88bd 48c1 9abd
00000190: 793c e83d 4df8 4abe 42ab 88bc ca3c aa3d
000001a0: 0f69 8f3d de85 863c cb8c f43d d07b 1d3e
000001b0: 1e8a cfbc f341 493e 2dd7 523d 87f1 c8bd
000001c0: 74d9 0dbc 641a dcbd 12ad 0ebd 959f 7b3e
000001d0: 4709 783e aa33 b7bc 05b5 0cbe 76c5 213d
000001e0: a166 0abd 8d75 4dbd 4a23 f03d 85d7 80bc
000001f0: 7e23 1d3e d08e 833d 8e62 6dbc df9e 89bc
00000200: f011 78be d00a 84bd d2a6 39bd d18f 433e
00000210: b3cc 583d 3d8d 073d 4dab 933d f63d 783e
00000220: 114d 113d 286a 443d d33f 803d cd81 a83d
00000230: 9a2e 163d a411 0ebe 24fd 603d 7036 963d
00000240: d8bb b03c c299 153d bbad f53a d233 8ebd
00000250: 8bc8 093d d91b 313e 1b9f 603e 8da6 213e
00000260: bbf9 d83d 096a 0e3d 263a a1bc 98c6 c0bd
00000270: f84a debd cfce e83d d308 543c 0536 dfbd
00000280: db00 c5bc 049d f6bd 3de2 b5bd d622 dc3d
00000290: d369 413e 64bd 883d 998a cd3c 8295 513d
000002a0: 9379 0b3d a26f 81bd 6fdd f3bd 077f 6cbe
000002b0: 10fb d0bd b577 c33d a83d 2fbd c043 16bc
000002c0: 0dd1 a2bb 2a44 cdbd 10de a138 220a 1d3d
000002d0: 0a12 b7bd 85fd 43bd ae04 5f3b e2e3 613e
000002e0: c9d5 7f3d 943a 0abe ca59 41bb f743 d03d
000002f0: c352 03be a727 493e 507e fd3d eb6f edbd
00000300: b191 843d 9a0a 67be 7314 143d aea0 b93d
00000310: 7a24 cdbb ecad 213d 5696 90bd 356c 5c3d
00000320: 8051 a53d 4005 3fbe 21b0 d33d 0f8b ef3d
00000330: b5c7 32be 6868 ccbc 318a 50be 7338 efbb
00000340: 7bd0 b4bc 6a3a 9e3d 324a 0d3e 6746 e73c
00000350: 8d4c 17be b6dc 2c3d 6d2e aabd 3bca 053e
00000360: e9e2 933d 096e 23bd 5774 a73d 8214 21bd
00000370: 208d 5bbc e709 a3bb f89a 37bd 5b16 0abe
00000380: 8bfc 2bbd ee7a 863c ec9b 3ebd 4025 e13d
00000390: 65b7 e1bb f7bf 52bd e980 0dbe 0188 963e
000003a0: f0ea a73d 8527 8dbd e69c 813d 7fe7 c33d
000003b0: 6bc4 723b f718 5e3d 40f2 2abe 65ec edbd
000003c0: a098 4abd 3d79 1a3c b02e 39bc 35eb 20be
000003d0: 25b0 42be 9be9 20bd 4aa0 94bc eaa8 63be
000003e0: 796d 663d 6d2b f4bd 42c2 553d 5702 993d
000003f0: 8777 9f3b e6a8 bd3a 374d 603c 2627 0bbe

discrete_action_output_shape f4 [1, 2]
3.0 3.0
00000000: 0000 4040 0000 4040

network_body._body_endoder.seq_layers.0.bias f4 [256]
-0.08297686 0.1050054 -0.01867351 0.017357621 -0.006014926 0.029058399 0.014141658 0.042224944
0.06997996 0.0065340283 0.036344755 0.026334697 -0.019960456 0.040992938 0.004017183 -0.10999685
-0.077890694 -0.008188133 0.00207371 0.0067782234 0.05358172 0.033702422 -0.018944245 0.050586235
-0.014774934 0.02409282 0.055045146 -0.024195205 0.018229712 -0.041460913 0.0071937237 -0.009782686
0.018341923 -0.00033356936 0.01578293 0.022932284 -0.0053622937 0.07365896 0.003531809 -0.04945476
-0.026897917 -0.03540153 0.017788632 0.021306695 -0.026724093 0.027012262 0.0012447999 0.025311517
0.018065212 0.052563842 0.0084863845 0.054831035 0.037321035 0.043510936 -0.026456567 0.013807327
-0.049565718 -0.04284883 -0.02478671 0.001511408 0.022445358 -0.00197044 0.055601317 0.0556129
0.052780412 0.050170925 -0.022307873 0.01751581 -0.013267698 0.06821226 0.045826636 0.0016705507
-0.020775095 -0.015273777 0.0036762531 -0.018337473 -0.053952377 -0.094443604 0.034004398 0.0115369
-0.07753976 -0.10246409 0.043546032 0.0148930885 0.02272555 -0.031710558 0.030819768 -0.0016560401
-0.033702597 0.022287898 0.0034841213 0.035721812 -0.017889727 -0.05856697 0.041558627 0.034038838
-0.07596236 -0.04605259 -0.012923381 -0.0051337737 -0.015047147 0.013443686 0.0467645 -0.09277764
-0.079796664 0.0058156583 -0.039548773 0.0063133677 -0.016039532 0.015101235 -0.03689824 0.018220037
0.0041667377 -0.0043978165 0.021945218 0.009555072 -0.009602798 0.027909664 0.0043901145 -0.019279374
0.0052604997 -0.04104761 0.033931065 0.02247986 0.048250005 0.0140135465 -0.02919329 -0.045757767
-0.011607131 -0.00607933 0.017947271 -0.007693637 0.030328732 -0.0014567323 0.030676771 0.034187034
-0.036277086 0.02134493 -0.028990328 0.014089311 -0.049147323 -0.0061172186 -0.028619653 0.00014761502
0.038064282 0.0055131414 -0.03395923 -0.065149166 -0.006638127 -0.022854034 -0.08178822 -0.03935713
-0.022792589 -0.0022612556 0.036980595 0.0027318038 0.067460716 -0.033551574 0.005149134 0.057785027
-0.02852217 0.015489955 0.04916091 0.03210236 -0.01783232 -0.040652797 0.033900265 -0.023882378
0.06634646 -0.0131050795 0.014058584 -0.024350727 0.06179804 -0.051999837 0.042695004 0.03374901
0.011287745 0.042927828 0.007304064 -0.023990015 -0.018758914 0.00054027233 -0.018666482 -0.114532955
-0.028398575 -0.029688163 0.020639144 -0.0020466773 -0.010606831 -0.0063365335 0.03613865 -0.02444964
-0.010426476 -0.04405251 -0.004085164 0.029048521 0.023675708 -0.006050139 0.017973147 0.0016858042
0.035148047 -0.08357931 -0.0020259544 0.0069119823 -0.018914614 0.03420086 -0.006346032 0.038913358
0.016372016 -0.05143533 -0.037492644 -0.030297384 0.004136659 0.0053861197 -0.0360327 0.0082688145
-0.026854185 -0.020321732 0.043628495 0.030478252 -0.0077390457 0.0091703255 0.025362538 0.029661082
-0.018274494 0.01027207 -0.003924591 -0.04103768 -0.011210197 -0.029752111 -0.012194064 -0.008330336
-0.0016860227 0.013672356 -0.042609926 -0.034199785 0.01178176 0.001382465 -0.015449592 -0.01801597
0.036968242 -0.07823233 0.018875437 -0.06251732 -0.029379457 0.021013318 0.021115923 -0.07883243
0.0066772513 -0.028179828 0.02047895 0.010678801 -0.012812562 0.02949551 -0.013260384 -0.01043332
00000000: c6ef a9bd 120d d73d 30f9 98bc 9231 8e3c
00000010: db18 c5bb e10b ee3c 6ab2 673c 10f4 2c3d
00000020: a751 8f3d 671b d63b 3dde 143d ddbb d73c
00000030: 1c84 a3bc 36e8 273d 93a2 833b 0746 e1bd
00000040: 2885 9fbd 8527 06bc 15e7 073b dc1b de3b
00000050: 8178 5b3d 8d0b 0a3d f630 9bbc 8333 4f3d
00000060: 9112 72bc 4e5e c53c 0577 613d 0635 c6bc
00000070: 7a56 953c ebd2 29bd 54b9 eb3b 8f47 20bc
00000080: cd41 963c ece2 aeb9 344b 813c 7cdc bb3c
00000090: 2eb6 afbb 82da 963d ec75 673b 1391 4abd
000000a0: 0559 dcbc 3201 11bd 77b9 913c 618b ae3c
000000b0: 7cec dabc d248 dd3c 8e28 a33a 195a cf3c
000000c0: 7ffd 933c 2f4d 573d 7a0a 0b3c 8296 603d
000000d0: f1dd 183d 8638 323d 71bb d8bc 2038 623c
000000e0: 6c05 4bbd 4182 2fbd 800d cbbc 701a c63a
000000f0: 54df b73c 7f22 01bb 35be 633d 5aca 633d
00000100: 4630 583d 0780 4d3d 00bf b6bc 517d 8f3c
00000110: c260 59bc dfb2 8b3d b6b4 3b3d 61f6 da3a
00000120: 8830 aabc dd3e 7abc 4bed 703b 7838 96bc
00000130: 2bfd 5cbd a66b c1bd 3248 0b3d 4405 3d3c
00000140: 2acd 9ebd b1d8 d1bd 535d 323d 2402 743c
00000150: ef2a ba3c eee2 01bd bd79 fc3c 7c0f d9ba
00000160: bc0b 0abd 1c95 b63c db55 643b 0951 123d
00000170: 7a8d 92bc ebe3 6fbd 6139 2a3d 4f6c 0b3d
00000180: 2792 9bbd a4a1 3cbd 97bc 53bc 3739 a8bb
00000190: 4f88 76bc e842 5c3c 228c 3f3d 3402 bebd
000001a0: 6f6c a3bd 4791 be3b e5fd 21bd 5ee0 ce3b
000001b0: 5665 83bc 2c6b 773c 9c22 17bd 3042 953c
000001c0: 2189 883b 8f1b 90bb 75c6 b33c e08c 1c3c
000001d0: 0e55 1dbc cfa2 e43c f3da 8f3b c7ef 9dbc
000001e0: 4560 ac3b 8a21 28bd 4dfb 0a3d af27 b83c
000001f0: cca1 453d 1399 653c c426 efbc 7f6c 3bbd
00000200: d62b 3ebc 1e35 c7bb 2806 933c e81a fcbb
00000210: f673 f83c d3ef beba da4d fb3c b407 0c3d
00000220: 4897 14bd 90db ae3c 207d edbc dad6 663c
00000230: b44e 49bd f372 c8bb c373 eabc 1bc9 1a39
00000240: 4be9 1b3d 95a7 b43b d518 0bbd ed6c 85bd
00000250: a584 d9bb 6238 bbbc 9580 a7bd f134 21bd
00000260: 86b7 babc 9331 14bb f778 173d 1008 333b
00000270: d828 8a3d 606d 09bd 11ba a83b feaf 6c3d
00000280: 53a7 e9bc 95c9 7d3c f35c 493d c47d 033d
00000290: 1615 92bc 8c83 26bd 01db 0a3d faa4 c3bc
000002a0: a7e0 873d b0b6 56bc fa55 663c 2d7b c7bc
000002b0: f11f 7d3d c8fd 54bd f5e0 2e3d 673c 0a3d
000002c0: 3cf0 383c 17d5 2f3d ee56 ef3b b586 c4bc
000002d0: 4bac 99bc 10a1 0d3a 73ea 98bc 4190 eabd
000002e0: 21a4 e8bc 9734 f3bc 6c13 a93c 8c21 06bb
000002f0: 46c8 2dbc b2a2 cfbb 1f06 143d 9d4a c8bc
00000300: cfd3 2abc 6870 34bd d7dc 85bb 2af7 ed3c
00000310: 8ff3 c13c 3f40 c6bb 6c3c 933c 34f6 dc3a
00000320: 66f7 0f3d a12b abbd e0c5 04bb e97d e23b
00000330: d2f2 9abc 3316 0c3d 60f2 cfbb 9d63 1f3d
00000340: 9b1e 863c daad 52bd e391 19bd 3832 f8bc
00000350: d08c 873b 0c7e b03b 0697 13bd ec79 073c
00000360: 4ffd dbbc c379 a6bc cbb3 323d 87ad f93c
00000370: d297 fdbb 223f 163c 19c5 cf3c ccfb f23c
00000380: 64b4 95bc 2f4c 283c db99 80bb 2017 28bd
00000390: f9aa 37bc b3ba f3bc 9dc9 47bc f67b 08bc
000003a0: 89fd dcba 0402 603c bf87 2ebd 1315 0cbd
000003b0: 4808 413c d433 b53a 4920 7dbc 3a96 93bc
000003c0: 036c 173d 4638 a0bd a9a0 9a3c 1509 80bd
000003d0: 30ad f0bc 1f24 ac3c 4dfb ac3c e672 a1bd
000003e0: d8cc da3b 62d9 e6bc 79c3 a73c 23f6 2e3c
000003f0: c8eb 51bc 91a0 f13c 1542 59bc 84f0 2abc

network_body._body_endoder.seq_layers.0.weight f4 [256, 54]
-0.13145082 -0.15191181 -0.14320606 -0.26255134 0.04182604 0.014346522 -0.25631878 -0.3834981
-0.18321493 -0.10361828 -0.15047488 -0.29808176 -0.27461174 -0.2678899 -0.28279105 -0.22771457
-0.40937448 0.12760913 0.058913663 0.26330763 -0.22826008 -0.21586859 -0.05403027 -0.16371694
-0.4110936 -0.064704254 -0.2531862 -0.36043936 -0.046579685 -0.12896462 -0.1043334 -0.100813076
-0.012566419 -0.22715367 0.059696175 -0.117521256 0.117518164 0.020655286 -0.24461164 0.13792007
-0.10010505 -0.025409268 0.09435633 0.045381367 0.080794215 0.10833553 -0.059289362 -0.14229195
0.07711348 -0.024511652 -0.06780126 -0.04671949 0.062414326 -0.074744985 0.18188839 -0.087303996
-0.24535249 -0.23059769 0.15909953 -0.31612659 0.029040614 -0.29571223 0.14204413 -0.06619809
-0.06945098 -0.28508428 -0.0016950174 -0.11810881 -0.3043201 -0.16219205 -0.3217687 0.19242741
0.10548589 -0.07699809 -0.0068883044 0.10886716 0.16001144 0.16218537 -0.20978053 -0.10233682
-0.14993815 0.05608271 0.31355432 -0.057322524 0.20374085 0.18188031 -0.06366637 0.12020392
0.11841769 0.038213223 0.18249828 0.10184517 0.080515355 -0.22003949 0.1291294 0.24057747
0.052900102 -0.047832485 -0.011217012 0.13591836 -0.12968515 0.17842917 -0.25006297 0.15853637
0.09502376 0.18848349 0.019386427 -0.034398444 -0.015153538 0.07439452 -0.16798462 -0.122874856
0.14233108 0.079583295 -0.0590986 -0.16498122 0.11430489 0.24023397 0.092607886 -0.046406798
0.002856619 0.1075354 0.23321387 0.12143838 -0.22697873 -0.08103625 -0.06355229 0.34789047
-0.009642283 -0.3302629 0.30905354 0.08161051 -0.06327282 -0.20074725 0.10762379 0.026388213
0.07192913 0.07362001 -0.08577396 0.21296467 -0.18442424 0.123889334 -0.00083772716 -0.31267804
-0.09119274 -0.2493428 -0.0034738998 0.08286672 -0.08223843 -0.014978757 0.057341315 -0.07060928
0.027205726 0.18533166 -0.04082178 0.24673069 -0.19737701 -0.049799845 0.03395623 -0.05864098
0.0074738865 -0.047908317 -0.09436162 0.24865991 0.009449378 0.048293114 0.016529655 0.16730769
0.17542826 0.042467587 0.045715522 0.3649761 0.04002062 0.016651921 -0.10598895 0.0055646156
-0.020018712 0.03531405 -0.18336712 -0.020694176 -0.32923073 0.18592498 -0.03230211 -0.14189668
-0.27161092 0.17139646 0.015372104 0.05515983 -0.11193901 -0.0693896 0.26483476 -0.1359131
-0.02925239 0.0471639 0.031408668 -0.018704094 -0.15286535 0.0686162 -0.2984901 -0.14554061
-0.17118283 -0.12396347 0.03456495 -0.11447672 0.025777431 -0.010506226 -0.057987425 0.24344318
0.16794623 -0.12137491 0.12624341 0.087290585 -0.118734226 0.091969766 0.029491507 -0.17816807
-0.10804646 -0.27123857 0.0027864187 0.096076615 0.06300401 -0.039449595 -0.36657518 0.026381493
0.084198035 -0.013191019 -0.26500422 -0.10456341 0.14047617 0.05133562 -0.24171637 0.00015566911
-0.18989275 0.046449304 0.008779035 -0.12156903 0.015544404 0.121266656 -0.047666278 -0.07315798
-0.10249652 -0.091968216 0.12561639 0.16768774 0.26361907 0.047206488 0.0655348 0.03144365
-0.20258081 -0.08699112 0.012459376 0.005462682 -0.09525166 -0.021994004 0.026262347 0.029405069
00000000: 0b9b 06be c58e 1bbe 9ca4 12be 216d 86be
00000010: c851 2b3d ad0d 6b3c 373c 83be dd59 c4be
00000020: b29c 3bbe d235 d4bd 1616 1abe 2c9e 98be
00000030: e999 8cbe dd28 89be fdc9 90be 022e 69be
00000040: 8899 d1be f8ab 023e 744f 713d 42d0 863e
00000050: 03bd 69be a80c 5dbe d84e 5dbd 6aa5 27be
00000060: dc7a d2be aa83 84bd 9fa1 81be 828b b8be
00000070: 57ca 3ebd 4d0f 04be c0ac d5bd 1677 cebd
00000080: 62e3 4dbc f99a 68be fa83 743d fcae f0bd
00000090: 5dad f03d 4635 a93c 797b 7abe eb3a 0d3e
000000a0: e003 cdbd 1927 d0bc e43d c13d d0e1 393d
000000b0: 7077 a53d 05df dd3d 67d9 72bd fbb4 11be
000000c0: aced 9d3d a9cc c8bc 63db 8abd f05c 3fbd
000000d0: 2aa6 7f3d e613 99bd f340 3a3e 70cc b2bd
000000e0: af3d 7bbe cd21 6cbe fdea 223e 58db a1be
000000f0: 95e6 ed3c 9867 97be 0474 113e dd92 87bd
00000100: 513c 8ebd 91f6 91be 592b deba 08e3 f1bd
00000110: d8cf 9bbe ac15 26be debe a4be b10b 453e
00000120: fc08 d83d 2db1 9dbd 49b7 e1bb bff5 de3d
00000130: 0ada 233e ec13 263e b5d0 56be f795 d1bd
00000140: 6389 19be fcb6 653d 318a a03e 06cb 6abd
00000150: 71a1 503e d53e 3a3e 8463 82bd 792d f63d
00000160: f984 f23d 7885 1c3d d4e0 3a3e 3394 d03d
00000170: 3ce5 a43d 0852 61be 7f3a 043e f159 763e
00000180: c7ad 583d ffeb 43bd 8fc7 37bc 2f2e 0b3e
00000190: 2fcc 04be 23b6 363e 4108 80be 5c57 223e
000001a0: d19b c23d d101 413e 49d0 9e3c 62e5 0cbd
000001b0: 8c46 78bc 275c 983d 2904 2cbe d0a5 fbbd
000001c0: 3dbf 113e 91fc a23d 6011 72bd d6f0 28be
000001d0: af18 ea3d e5ff 753e 34a9 bd3d 0e15 3ebd
000001e0: 1d36 3b3b 853b dc3d 9ecf 6e3e afb4 f83d
000001f0: 1d6d 68be 55f6 a5bd b427 82bd b31e b23e
00000200: abfa 1dbc 3818 a9be 443c 9e3e 6923 a73d
00000210: 2e95 81bd b090 4dbe dd69 dc3d 182c d83c
00000220: 944f 933d 16c6 963d 42aa afbd 6913 5a3e
00000230: b5d9 3cbe b1b9 fd3d eb9a 5bba 5617 a0be
00000240: 42c3 babd b853 7fbe 5eaa 63bb 07b6 a93d
00000250: 9f6c a8bd 7669 75bc bade 6a3d 999b 90bd
00000260: 8bde de3c 95c7 3d3e bd34 27bd f8a6 7c3e
00000270: 331d 4abe ecfa 4bbd b015 0b3d 8631 70bd
00000280: 81e7 f43b 833b 44bd aa40 c1bd b4a0 7e3e
00000290: 90d1 1a3c 00cf 453d 3369 873c b552 2b3e
000002a0: 77a3 333e 7ef2 2d3d 3340 3b3d 26de ba3e
000002b0: a9ec 233d 9c69 883c bc10 d9bd 6157 b63b
000002c0: 48fe a3bc 77a5 103d 97c4 3bbe d586 a9bc
000002d0: ee90 a8be 1e63 3e3e 384f 04bd 5d4d 11be
000002e0: 9610 8bbe 8e82 2f3e 47db 7b3c 46ef 613d
000002f0: 4840 e5bd 221c 8ebd 6c98 873e ce2c 0bbe
00000300: b5a2 efbc ef2e 413d 60a6 003d 5439 99bc
00000310: bc88 1cbe a686 8c3d b2d3 98be 9908 15be
00000320: 8d4a 2fbe 8fe0 fdbd fa93 0d3d c572 eabd
00000330: 312b d33c 4e22 2cbc 3984 6dbd 2b49 793e
00000340: 19fa 2b3e 6993 f8bd f445 013e 68c5 b23d
00000350: ee2a f3bd a55a bc3d 2c98 f13c b171 36be
00000360: 7647 ddbd c8df 8abe 599c 363b d1c3 c43d
00000370: 3f08 813d e695 21bd beaf bbbe 001e d83c
00000380: 0570 ac3d 251f 58bc a2ae 87be 5725 d6bd
00000390: fcd8 0f3e 4d45 523d 7f84 77be 1c3b 2339
000003a0: 3f73 42be a041 3e3d f1d5 0f3c 2ff9 f8bd
000003b0: f5ad 7e3c a75a f83d b73d 43bd dad3 95bd
000003c0: b2e9 d1bd d559 bcbd 95a1 003e 56b6 2b3e
000003d0: 14f9 863e 975b 413d 1c37 863d 0fcb 003d
000003e0: 5871 4fbe 6628 b2bd 6922 4c3c 4c00 b33b
000003f0: 4d13 c3bd c52c b4bc 2224 d73c e6e2 f03c

network_body._body_endoder.seq_layers.2.bias f4 [256]
0.029062184 0.05074726 0.0013884768 0.07249291 0.05954322 -0.019601276 0.038668703 -0.0018514603
-0.03798863 -0.03025995 0.069142275 0.028625997 -0.01722443 0.021997232 -0.01847954 -0.020519452
0.03404749 -0.00827399 -0.012627854 -0.008540322 -0.005217011 0.062645376 0.05053382 -0.050525412
-0.023026368 0.042341873 -0.0070326347 -0.0021630202 -0.034301788 0.07131548 -0.050179992 -0.01798349
-0.018361034 -0.022853602 -0.043341994 0.049788576 0.039791454 0.053230047 0.064338915 -0.04459865
0.023293387 0.053430907 0.043117844 0.011661612 -0.034052793 -0.017053548 -0.03943208 -0.025140516
-0.0056004035 0.037562516 0.018485302 0.065325506 0.0040067546 -0.013432439 0.051155843 0.03692109
-0.04429991 -0.0073561394 0.070789345 -0.053937167 0.0006482574 0.06657996 -0.029194485 -0.013074272
-0.015760731 -0.0087836 -0.00214612 -0.0022882526 -0.0057503437 -0.0028945645 -0.017299896 0.0051222257
0.02765603 -0.0081996955 0.05991153 0.03138622 0.022071091 -0.030734904 -0.017759366 0.051918287
-0.020293698 -0.012510911 -0.005190084 0.06373273 0.041688602 -0.02476411 -0.01579356 0.004834505
0.04959541 -0.018815616 -0.03621944 -0.027184457 0.054347135 0.060575936 -0.008714241 -0.012868368
-0.014306947 -0.049462475 0.004477827 0.028158983 -0.021591322 0.039886978 -0.00059501437 -0.0066260337
-0.008124019 -0.056085423 0.0050727935 -0.004448894 0.044759233 -0.0069358894 -0.006431919 0.023416389
-0.020264834 0.027511127 0.02506083 -0.002434276 0.017576933 -0.024342448 0.05305187 -0.0065195663
0.06480404 0.022272903 -0.011111069 0.0076564727 -0.008278634 -0.010656304 -0.0031900874 0.0011386462
0.04795962 0.05603097 0.0038120716 0.017325917 -0.014289681 -0.050714906 -0.012639815 -0.0020814615
-0.0066664587 -0.0038381212 -0.03264403 -0.028241184 -0.043323014 0.052278906 -0.002312549 -0.005920268
-0.04230898 -0.03850107 -0.027058385 0.010209358 -0.008364084 -0.025979225 0.020327002 -0.005754244
-0.015628891 0.004132898 0.009354935 -0.010267356 0.010909262 -0.0077729435 -0.018477889 0.04392463
0.0046689017 0.0018085309 0.06463798 -0.021157932 0.009663298 -0.05692547 -0.056610197 -0.01711346
-0.008448282 0.028873675 0.06896927 0.061383247 0.002342451 -0.021127556 -0.0027085952 0.036246307
-0.0069772224 0.06226708 -0.05876411 -0.00010454694 0.04612346 -0.010656084 0.0030082501 -0.00240612
-0.016360292 0.064327545 0.006674015 -0.0106518455 0.042859137 0.01208913 -0.017161394 0.05779497
0.0070267715 0.05829635 0.061099775 -0.003608666 0.016343093 -0.005862046 0.049024887 -0.0137728285
-0.030829156 0.049751576 -0.019175844 -0.035398446 0.06164761 0.00896011 0.07361496 0.017570544
-0.0044474835 -0.018137453 -0.03345676 -0.02557085 0.06308386 -0.01907015 0.056272347 -0.0068513965
-0.010681846 0.042947363 0.0018431455 0.013113763 -0.009702956 -0.0119517585 0.06780117 0.012209425
-0.0067260866 -0.031553082 0.039379276 -0.020230167 -0.006966703 0.037014607 0.048649415 -0.021092128
-0.0056481757 0.049022503 -0.006675606 -0.015201469 -0.015301676 -0.004055336 0.070687905 0.04821599
0.08342769 0.008021303 -0.03049538 0.06824667 0.055453315 0.0016612684 0.0054268828 0.04295153
-0.01648943 0.024955027 -0.015625332 -0.035751566 -0.0069641084 -0.02220039 -0.033930793 0.018076213
00000000: d113 ee3c 5cdc 4f3d 8dfd b53a 2a77 943d
00000010: 97e3 733d db92 a0bc 1363 1e3d b3ac f2ba
00000020: f799 1bbd b7e3 f7bc 779a 8d3d 1181 ea3c
00000030: 3f1a 8dbc 8a33 b43c 6762 97bc 6918 a8bc
00000040: 6275 0b3d a18f 07bc 0fe5 4ebc b5ec 0bbc
00000050: 76f3 aabb 384c 803d 8dfc 4e3d bcf3 4ebd
00000060: cba1 bcbc ac6e 2d3d 0472 e6bb 75c1 0dbb
00000070: 0880 0cbd da0d 923d 8989 4dbd 1d52 93bc
00000080: e169 96bc 7a37 bbbc 6087 31bd 1bef 4b3d
00000090: 5dfc 223d c007 5a3d 1fc4 833d 13ad 36bd
000000a0: c6d1 be3c 5eda 5a3d 569c 303d 5910 3f3c
000000b0: f17a 0bbd e2b3 8bbc 8883 21bd 7cf3 cdbc
000000c0: 9783 b7bb 27db 193d 7d6e 973c 61c9 853d
000000d0: 184b 833b bc13 5cbc ca88 513d 923a 173d
000000e0: d373 35bd c50b f1bb 01fa 903d 38ed 5cbd
000000f0: d1ef 293a 135b 883d 4629 efbc 7935 56bc
00000100: a61c 81bc 17e9 0fbc eba5 0cbb 82f6 15bb
00000110: 616d bcbb bcb2 3dbb 83b8 8dbc 58d8 a73b
00000120: e68e e23c 0458 06bc cb65 753d d68e 003d
00000130: 6fce b43c c4c7 fbbc 177c 91bc 45a8 543d
00000140: f83e a6bc 90fa 4cbc 9511 aabb 4e86 823d
00000150: abc1 2a3d 1ade cabc 7f61 81bc c46a 9e3b
00000160: 8e24 4b3d 3523 9abc d65a 14bd f0b1 debc
00000170: 1a9b 5e3d 791e 783d 2dc6 0ebc d9d5 52bc
00000180: af67 6abc 2a99 4abd bcba 923b abad e63c
00000190: 49e0 b0bc 8760 233d bdfa 1bba 331f d9bb
000001a0: 9b1a 05bc d4b9 65bd ad39 a63b 07c8 91bb
000001b0: 7555 373d 7546 e3bb d9c2 d2bb bad3 bf3c
000001c0: 7002 a6bc 045f e13c 5f4c cd3c 6088 1fbb
000001d0: 80fd 8f3c d069 c7bc eb4c 593d 16a2 d5bb
000001e0: fbb7 843d aa75 b63c 330b 36bc 26e3 fa3b
000001f0: 1ca3 07bc c797 2ebc c910 51bb a03e 953a
00000200: 4e71 443d bb80 653d f3d3 793b 15ef 8d3c
00000210: 441f 6abc 6fba 4fbd 3a17 4fbc 2169 08bb
00000220: 4f72 dabb fd88 7bbb bfb5 05bd 0e5a e7bc
00000230: 7973 31bd 6822 563d 228e 17bb cffe c1bb
00000240: 2e4c 2dbd 4cb3 1dbd 8ca9 ddbc 2745 273c
00000250: 8309 09bc 62d2 d4bc d084 a63c 198e bcbb
00000260: 2908 80bc 436d 873b 7145 193c 6a38 28bc
00000270: c3bc 323c 2db4 febb f15e 97bc 50ea 333d
00000280: 96fd 983b 3a0c ed3a eb60 843d 6653 adbc
00000290: cf52 1e3c ae2a 69bd 18e0 67bd 8731 8cbc
000002a0: aa6a 0abc 7c88 ec3c c33f 8d3d 006d 7b3d
000002b0: ce83 193b b213 adbc b082 31bb 0277 143d
000002c0: 2fa1 e4bb c40b 7f3d a3b2 70bd 3640 dbb8
000002d0: f4eb 3c3d db96 2ebc 1026 453b ffaf 1dbb
000002e0: 0506 86bc 29be 833d b2b1 da3b 1485 2ebc
000002f0: 108d 2f3d 7c11 463c 0d96 8cbc 6bba 6c3d
00000300: d540 e63b 27c8 6e3d c243 7a3d 5e7f 6cbb
00000310: f3e1 853c 6816 c0bb 52ce 483d 6ea7 61bc
00000320: 6d8d fcbc 4fc8 4b3d a916 9dbc f6fd 10bd
00000330: 3482 7c3d 6dcd 123c 71c3 963d 1af0 8f3c
00000340: 32bc 91bb ff94 94bc f509 09bd f679 d1bc
00000350: 1c32 813d 0139 9cbc d57d 663d ae81 e0bb
00000360: e902 2fbc 93e9 2f3d b395 f13a 1cdb 563c
00000370: 26f9 1ebc 4fd1 43bc 57db 8a3d 0a0a 483c
00000380: 8166 dcbb ce3d 01bd 2a4c 213d bcb9 a5bc
00000390: f148 e4bb a19c 173d 9c44 473d 66c9 acbc
000003a0: 5514 b9bb d2cb 483d 0bbf dabb 950f 79bc
000003b0: e1b3 7abc a0e2 84bb d2c4 903d 217e 453d
000003c0: 23dc aa3d c96b 033c 72d1 f9bc e9c4 8b3d
000003d0: 0423 633d ebbe d93a fed3 b13b f2ed 2f3d
000003e0: d714 87bc 7c6e cc3c b200 80bc 3c70 12bd
000003f0: 2d33 e4bb 98dd b5bc 04fb 0abd 9114 943c

network_body._body_endoder.seq_layers.2.weight f4 [256, 256]
0.0062007713 0.12948887 0.117225714 -0.08920133 0.12595831 0.017588846 -0.023788065 0.11805602
0.05100893 -0.0030454616 -0.11662277 0.017546382 -0.07660049 -0.084899545 -0.13049988 0.016800921
0.095480934 -0.046010133 -0.094679035 0.05384139 -0.083048746 -0.042602845 0.04458406 0.11642832
-0.01431537 0.11900459 -0.03666881 -0.006892615 -0.06524357 0.017767897 0.07562604 0.059826802
0.14395767 -0.09984173 0.004245656 -0.041167717 -0.11032656 0.1315134 0.020763421 -0.09228163
-0.047955375 0.10331983 -0.16981456 -0.0021727085 -0.123095326 -0.01836193 0.15800358 -0.018675707
0.074310526 0.08177534 0.09571027 -0.12781616 0.062354364 0.06182134 -0.11834462 -0.15678747
-0.00070425234 0.011162411 -0.035969518 -0.03895889 0.014789428 0.035897262 0.24334034 0.0074915495
-0.12588565 0.03157412 0.04611859 0.089478746 0.03012836 0.15658456 0.0049718376 -0.031183714
0.1854488 0.033606634 -0.03077628 -0.15555292 0.1275748 0.013193474 -0.022305017 -0.062870935
-0.048723247 -0.059327427 0.036536198 -0.0013508769 0.16252507 -0.13694708 0.12515065 -0.004123178
-0.08385918 -0.02510414 0.015025241 0.094256416 0.011665402 -0.023810208 0.11359433 0.13506581
-0.004719321 0.015116074 -0.16936345 -0.049641937 0.024216902 -0.117663436 0.11616218 0.053021107
-0.10512231 -0.14390996 0.027122673 0.023554526 0.045835532 0.047573086 -0.032623645 0.14845319
0.09647314 0.013576312 0.078865096 0.115323395 -0.049256455 -0.07520549 0.08391524 -0.023299765
0.04944284 -0.053236827 0.13385539 0.10531374 0.13030905 -0.019553447 -0.12998293 -0.21965334
0.10833095 -0.139973 -0.030398728 -0.041254997 -0.18373501 0.029365128 0.034905247 -0.08953285
-0.04853937 0.04642001 0.032129392 0.14977802 -0.050944418 -0.061911464 -0.30792782 -0.16760881
0.11557716 0.11563233 -0.042228356 -0.1636406 -0.026913712 -0.041488435 0.024090275 0.065183125
-0.08602592 -0.047401827 0.00821491 -0.13097091 0.037529606 -0.06740756 -0.14958099 0.10504024
0.08973253 0.057409212 0.08097011 0.19663922 -0.036705315 -0.07336768 -0.024306227 0.06425097
0.072071254 0.008868925 -0.12525812 -0.10793585 0.044662718 -0.029884757 -0.045829754 -0.10601475
-0.04583041 -0.101888746 0.028381474 0.027307045 0.012078263 0.1268902 -0.13636458 -0.10731311
0.11527597 -0.0074336166 0.0787637 0.07180887 -0.059470635 -0.28299433 -0.084984556 0.1621995
-0.029706223 0.17685078 0.010910755 0.06476689 -0.030751653 0.09073087 0.0034991328 -0.14765814
0.050348025 0.009114768 0.056853928 -0.12401906 0.09178516 0.07543988 -0.041415058 0.10710556
0.04907175 0.048897814 -0.0036584951 0.04172603 -0.0742935 0.10950456 -0.036284078 -0.01462865
0.07849492 -0.02709225 0.026966982 -0.22034444 -0.021510916 -0.005289998 0.091760404 -0.0419807
-0.12735683 0.021762935 -0.0216624 -0.024001805 0.026865369 0.0649762 -0.029631274 -0.030986676
-0.0877023 0.07516431 0.014704267 0.21019109 0.043925837 -0.014181684 -0.02274459 -0.11921731
0.041253477 0.05283708 0.012928218 -0.015796507 -0.14531037 -0.008598743 0.037428197 -0.12636167
0.08788835 0.11278778 -0.004217176 0.09504597 -0.1354689 -0.017911157 -0.09714363 0.05191663
00000000: d72f cb3b bb98 043e 0914 f03d 30af b6bd
00000010: 37fb 003e 7c16 903c 30df c2bc 5bc7 f13d
00000020: bdee 503d 5e96 47bb ebd7 eebd 6ebd 8f3c
00000030: b8e0 9cbd d0df adbd c3a1 05be 16a2 893c
00000040: 828b c33d 1f75 3cbd 15e7 c1bd ca88 5c3d
00000050: 7615 aabd 5280 2ebd c69d 363d f971 ee3d
00000060: 038b 6abc aeb8 f33d 0932 16bd 72db e1bb
00000070: 6c9e 85bd fb8d 913c d3e1 9a3d f30c 753d
00000080: a469 133e d279 ccbd 251f 8b3b 7b9f 28bd
00000090: e4f2 e1bd 73ab 063e 0d18 aa3c 27fe bcbd
000000a0: db6c 44bd 5999 d33d dee3 2dbe 0064 0ebb
000000b0: 6719 fcbd c26b 96bc b1cb 213e ccfd 98bc
000000c0: 1e30 983d d479 a73d bf03 c43d 3de2 02be
000000d0: 4a67 7f3d 6038 7d3d aa5e f2bd e58c 20be
000000e0: 939d 38ba 8ce2 363c c654 13bd 5b93 1fbd
000000f0: 5b4f 723c 0209 133d 362e 793e ac7b f53b
00000100: 2be8 00be dd53 013d d9e6 3c3d a240 b73d
00000110: c0cf f63c b457 203e ccea a23b fd74 ffbc
00000120: 4ae6 3d3e 1ca7 093d 8a1e fcbc 4449 1fbe
00000130: f8a2 023e 7129 583c 03b9 b6bc 7ac2 80bd
00000140: 0792 47bd 5101 73bd fba6 153d e80f b1ba
00000150: f96c 263e db3b 0cbe 7e27 003e b91b 87bb
00000160: 5dbe abbd 33a7 cdbc 6e2c 763c 8209 c13d
00000170: 3e20 3f3c a00d c3bc 25a4 e83d b14e 0a3e
00000180: 89a4 9abb 69a9 773c 9d6d 2dbe 5855 4bbd
00000190: 8662 c63c 87f9 f0bd 70e6 ed3d a92c 593d
000001a0: 5e4a d7bd 225d 13be 5e30 de3c 6cf5 c03c
000001b0: 0abe 3b3d ffdb 423d 5fa0 05bd 1d04 183e
000001c0: b693 c53d 2e6f 5e3c 0684 a13d ac2e ec3d
000001d0: 23c1 49bd 5605 9abd c1db ab3d 26df bebc
000001e0: 9384 4a3d dc0e 5abd 6311 093e bbae d73d
000001f0: bc6f 053e 8d2e a0bc 3f1a 05be ceec 60be
00000200: 9edc dd3d 1555 0fbe c106 f9bc 00fb 28bd
00000210: 0825 3cbe 238f f03c cef8 0e3d 005d b7bd
00000220: 38d1 46bd e922 3e3d 1c9a 033d 695f 193e
00000230: 18ab 50bd e096 7dbd b7a8 9dbe a5a1 2bbe
00000240: b8b3 ec3d a5d0 ec3d a4f7 2cbd 6791 27be
00000250: 257a dcbc c7ef 29bd f858 c53c bb7e 853d
00000260: 5c2e b0bd 6b28 42bd d497 063c 3d1d 06be
00000270: a5b8 193d fa0c 8abd c22b 19be 561f d73d
00000280: b0c5 b73d ec25 6b3d a8d3 a53d cb5b 493e
00000290: 5058 16bd cb41 96bd da1d c7bc 0396 833d
000002a0: 189a 933d f84e 113c aa43 00be 790d ddbd
000002b0: 41f0 363d e1d0 f4bc fbb7 3bbd 431e d9bd
000002c0: abb8 3bbd 0cab d0bd 4480 e83c 06b3 df3c
000002d0: e8e3 453c 81ef 013e 28a3 0bbe fac6 dbbd
000002e0: cf15 ec3d b295 f3bb dd4e a13d 8710 933d
000002f0: 7b97 73bd a2e4 90be 620c aebd a017 263e
00000300: 775a f3bc 5f18 353e 06c3 323c 81a4 843d
00000310: e4ea fbbc 1bd1 b93d b551 653b b233 17be
00000320: bb39 4e3d 1c56 153c aadf 683d b4fd fdbd
00000330: dcf9 bb3d 3980 9a3d d6a2 29bd 295a db3d
00000340: 76ff 483d 1349 483d 5dc3 6fbb eae8 2a3d
00000350: 3127 98bd ed43 e03d 9d9e 14bd 01ad 6fbc
00000360: f2c1 a03d 91f0 ddbc dce9 dc3c f9a1 61be
00000370: a937 b0bc b857 adbb e1ec bb3d f4f3 2bbd
00000380: d469 02be 2f48 b23c 5875 b1bc 6f9f c4bc
00000390: c314 dc3c 3e12 853d 49bd f2bc c5d7 fdbc
000003a0: 439d b3bd bfef 993d 2aea 703c 553c 573e
000003b0: 94eb 333d 4b5a 68bc dd52 babc 3428 f4bd
000003c0: 68f9 283d b26b 583d e0d0 533c ad67 81bc
000003d0: 3ecc 14be bee1 0cbc 4f4e 193d f464 01be
000003e0: cffe b33d 48fd e63d 3d30 8abb 76a7 c23d
000003f0: 5cb8 0abe 6bba 92bc 3df3 c6bd 88a6 543d
